…
        "model.summary() #Gives the summary of the above model by showing the output shape of each layer and also gives the number of trainable parameters"
      ],
      "id": "cde6fffe",
      "execution_count": null,
      "outputs": [
        {
          "name": "stdout",
          "output_type": "stream",
          "text": [
            "Model: \"sequential_4\"\n",
            "_________________________________________________________________\n",
            "Layer (type)                 Output Shape              Param #   \n",
            "=================================================================\n",
            "conv2d_12 (Conv2D)           (None, 32, 32, 32)        896       \n",
            "_________________________________________________________________\n",
            "conv2d_13 (Conv2D)           (None, 32, 32, 32)        9248      \n",
            "_________________________________________________________________\n",
            "max_pooling2d_12 (MaxPooling (None, 16, 16, 32)        0         \n",
            "_________________________________________________________________\n",
            "dropout_1 (Dropout)          (None, 16, 16, 32)        0         \n",
            "_________________________________________________________________\n",
            "conv2d_14 (Conv2D)           (None, 16, 16, 64)        18496     \n",
            "_________________________________________________________________\n",
            "conv2d_15 (Conv2D)           (None, 16, 16, 64)        36928     \n",
            "_________________________________________________________________\n",
            "max_pooling2d_13 (MaxPooling (None, 8, 8, 64)          0         \n",
            "_________________________________________________________________\n",
            "dropout_2 (Dropout)          (None, 8, 8, 64)          0         \n",
            "_________________________________________________________________\n",
            "conv2d_16 (Conv2D)           (None, 8, 8, 128)         73856     \n",
            "_________________________________________________________________\n",
            "conv2d_17 (Conv2D)           (None, 8, 8, 128)         147584    \n",
            "_________________________________________________________________\n",
            "max_pooling2d_14 (MaxPooling (None, 4, 4, 128)         0         \n",
            "_________________________________________________________________\n",
            "dropout_3 (Dropout)          (None, 4, 4, 128)         0         \n",
            "_________________________________________________________________\n",
            "flatten_4 (Flatten)          (None, 2048)              0         \n",
            "_________________________________________________________________\n",
            "dense_6 (Dense)              (None, 128)               262272    \n",
            "_________________________________________________________________\n",
            "dropout_4 (Dropout)          (None, 128)               0         \n",
            "_________________________________________________________________\n",
            "dense_7 (Dense)              (None, 10)                1290      \n",
            "=================================================================\n",
            "Total params: 550,570\n",
            "Trainable params: 550,570\n",
            "Non-trainable params: 0\n",
            "_________________________________________________________________\n"
          ]
        }
      ]
    },
    {
      "cell_type": "code",
      "metadata": {
        "id": "b42b63a1",
…
